backend/models/rash_classifier.tflite (tflite, 526424 bytes, 24 tensors)

arith.constant f4 [16]
0	0x3e0195c9	0.12654795
1	0x3e37603c	0.17907804
2	0x3edd364e	0.43205494
3	0x3ee1c390	0.44094515
4	0x3eaa581c	0.33270347
5	0x3ec11517	0.37711403
6	0x3e3a38b0	0.18185687
7	0x3ed054de	0.4068975
8	0x3e8ed689	0.27898052
9	0x3e0abfdb	0.1354975
10	0x3eb32971	0.34992555
11	0xbc67acd8	-0.01414033
12	0x3e5a1bf9	0.21299733
13	0xbd559dd4	-0.05215247
14	0x3d8b44de	0.06800245
15	0x3d8d65fb	0.06904217

arith.constant1 f4 [16, 3, 3, 3]
0	0xbe40d630	-0.18831706
1	0xbb936b49	-0.0044988734
2	0xbe10eb73	-0.14152317
3	0x3e18e19d	0.14929815
4	0x3d288b08	0.041148216
5	0xbe6e5de7	-0.23278008
6	0x3e239190	0.15973496
7	0xbe2e074c	-0.16994971
8	0x3d8055be	0.06266354
9	0xbe3ca9da	-0.18424168
10	0x3c131d03	0.008979085
11	0xbe64bf53	-0.2233861
12	0xbd528b70	-0.05140251
13	0xbe73ef03	-0.23821644
14	0xbe2c6e65	-0.16838987
15	0x3e7b4cf4	0.24541074
16	0xbe33adcc	-0.17546767
17	0x3e0dd8dc	0.13852257
18	0x3dedafd3	0.116058014
19	0xbd2e7376	-0.04259058
20	0x3cb72d7c	0.022360556
21	0x3e4d434f	0.20045207
22	0xbd54a37d	-0.051913727
23	0x3e1c3413	0.1525424
24	0x3d880653	0.06641831
25	0xbcc78f5d	-0.024360353
26	0xbdd87c56	-0.1057059
27	0xbd897ba7	-0.06713038
28	0x3df3fa79	0.11913008
29	0xbe043669	-0.12911381
30	0x3e34f126	0.17670116
31	0x3e1bd77c	0.1521892
32	0x3e3dc6e5	0.18532903
33	0xbe53280c	-0.20620745
34	0xbe61ed4b	-0.22063176
35	0xbe20c6ea	-0.1570088
36	0x3df53597	0.11973112
37	0x3d10a4ba	0.035313345
38	0xbe6ba57a	-0.23012343
39	0x3d84250f	0.06452381
40	0xbe23729d	-0.1596169
41	0xbd7e1ce4	-0.06203927
42	0x3e09b046	0.13446149
43	0x3e3863ea	0.18006864
44	0x3d0d34b6	0.034474097
45	0x3d8f3008	0.06991583
46	0x3ea9aa81	0.33137897
47	0x3e068e7c	0.13140291
48	0xbe14599e	-0.14487311
49	0xbe1ae430	-0.15126109
50	0xbe17d6b2	-0.14827994
51	0x3daef96f	0.085436694
52	0xbe37da40	-0.1795435
53	0x3e4b06a2	0.19826749
54	0xbde50141	-0.1118188
55	0x3e757c05	0.23973091
56	0x3df451b4	0.11929646
57	0xbe3cfcce	-0.18455812
58	0x3e454a22	0.1926656
59	0x3e789810	0.24276757
60	0xbe0fca84	-0.14042097
61	0xbd90f07d	-0.070771195
62	0xbe4b4394	-0.19849998
63	0x3c93a766	0.018024158
64	0xbd5d12a5	-0.05397286
65	0x3de4c832	0.11170997
66	0x3daa52e5	0.08316592
67	0xba87474a	-0.0010320928
68	0xbe7fc68f	-0.24978088
69	0xbd6fdb0b	-0.058558505
70	0xbd30d08c	-0.043167636
71	0x3d24f6df	0.040274497
72	0x3e0739e9	0.13205685
73	0xbd53a80d	-0.051673938
74	0xbda402f2	-0.08008374
75	0x3d944850	0.07240355
76	0x3d6ae6de	0.05734908
77	0xbe6faa23	-0.23404746
78	0x3e82a4a3	0.25516233
79	0x3db1a897	0.08674734
80	0x3c9bcb0f	0.019017724
81	0x3e4e85fd	0.201683
82	0x3e66d292	0.22541264
83	0x3bbbe152	0.0057336474
84	0xbd1f4571	-0.038884584
85	0x3d283484	0.041065708
86	0xbe88279c	-0.2659272
87	0xbdcf8fa1	-0.10134817
88	0xbd5db678	-0.054129094
89	0xbdfaea81	-0.12251759
90	0x3dcc3d9a	0.09972687
91	0xbe849faa	-0.25903064
92	0x3d973d74	0.07384768
93	0x3dab7186	0.08371262
94	0xbdfc0332	-0.12305297
95	0x3cf0caba	0.029393543
96	0xbc987b9d	-0.01861363
97	0x3e218422	0.15773061
98	0xbdf43a6e	-0.11925207
99	0xbe21bb1d	-0.15794034
100	0xbe83abf6	-0.25717133
101	0x3d5d47f1	0.054023687
102	0x3c4a8f08	0.012363203
103	0x3e1ef3a4	0.15522629
104	0x3e188813	0.14895658
105	0xbd864319	-0.065557666
106	0x3e7edb47	0.24888335
107	0x3e2cb5f8	0.1686629
108	0x3e4f7920	0.2026105
109	0x3e1d2c06	0.15348825
110	0x3e7e364d	0.24825402
111	0xbde4082e	-0.11134373
112	0xbd5e6b5c	-0.054301605
113	0x3e838ebb	0.25694832
114	0x3e21b2b5	0.15790828
115	0x3d935a2a	0.07194932
116	0xbb392476	-0.0028250492
117	0xbd30ed15	-0.04319485
118	0x3dda0501	0.10645486
119	0x3e62c2e3	0.22144656
120	0xbdad1e6e	-0.084530696
121	0xbc987979	-0.01861261
122	0x3e5e1dc7	0.21691047
123	0x3e1720c4	0.14758593
124	0xbcd18c85	-0.0255797
125	0x3d46b503	0.04851247
126	0xbd9c4827	-0.076309495
127	0xbe4b92fd	-0.1988029
128	0x3d4fec11	0.05076224
129	0xbe3b4af8	-0.18290317
130	0xbe0202e8	-0.12696421
131	0xbd8187ef	-0.063247554
132	0xbe747915	-0.23874314
133	0xbe56deb8	-0.20983398
134	0x3b972be1	0.004613385
135	0x3dd27eec	0.10278115
136	0x3e2e1427	0.16999875
137	0x3e968e37	0.29405376
138	0x3e0810d0	0.13287663
139	0xbe632148	-0.22180665
140	0x3e30c08e	0.17260954
141	0x3db42ae2	0.08797242
142	0xbe29d051	-0.16583373
143	0xbe4a14ee	-0.19734547
144	0x3d0709f6	0.032968484
145	0xbe1e9c82	-0.1548939
146	0x3e6f7d34	0.23387605
147	0xbd4055e3	-0.046956908
148	0xbb7b18b6	-0.003831429
149	0xbe88c1cb	-0.26710352
150	0xbe07fa2e	-0.1327903
151	0x3c918297	0.017762465
152	0xbe84b882	-0.25922018
153	0xbd1153da	-0.035480358
154	0x3deec3dd	0.11658452
155	0xbd268f28	-0.04066387
156	0xbe281119	-0.16412772
157	0x3e221aa4	0.15830475
158	0xbdea627c	-0.11444566
159	0x3e4fca50	0.2029202
160	0x3e245460	0.16047812
161	0x3d9118f4	0.070848376
162	0xbd91166f	-0.07084357
163	0xbd00b70f	-0.03142458
164	0xbddee677	-0.108838014
165	0x3ce64251	0.028107794
166	0xbcd34ea9	-0.025794344
167	0x3d886bc1	0.066611774
168	0x3db16962	0.08662678
169	0x3e2ac814	0.16677886
170	0x3dea5dc6	0.11443667
171	0x3e1176d2	0.14205483
172	0xbe9a51c4	-0.30140507
173	0xbdb7aaaf	-0.08968102
174	0xbe4fff4a	-0.20312229
175	0x3e0a34ef	0.13496755
176	0x3e4d804f	0.20068477
177	0x3cd0b8cf	0.025478749
178	0xbe6f143e	-0.23347566
179	0x3e09cc4e	0.13456842
180	0x3e324f10	0.17412972
181	0x3d7eadd1	0.062177483
182	0x3e75849f	0.23976372
183	0xbdb9de57	-0.09075611
184	0xbd99b7c3	-0.07505753
185	0x3da64f0e	0.08120547
186	0x3daece6c	0.085354656
187	0xbe416d0a	-0.18889251
188	0xbe78bd76	-0.24291024
189	0xbe236bdd	-0.15959115
190	0xbe0afada	-0.13572255
191	0xbd8c9c35	-0.068657316
192	0xbc4d4f01	-0.012531043
193	0xbd3e10f1	-0.046402875
194	0xbe44508a	-0.19171348
195	0x3dde8b32	0.10866393
196	0x3e2ac797	0.166777
197	0x3d65c3fe	0.056095116
198	0xbe40b30a	-0.18818298
199	0x3e7dcd61	0.24785377
200	0x3e874ac5	0.26424232
201	0x3e1fbe20	0.1559987
202	0x3d184ddf	0.03718364
203	0x3d915e45	0.070980586
204	0x3e26d536	0.16292271
205	0xbda15111	-0.0787679
206	0x3da1eca6	0.07906465
207	0x3d69d6e7	0.057089712
208	0xbdd11e43	-0.1021085
209	0x3dd90ec6	0.10598521
210	0xbc5a4efa	-0.013324494
211	0xbda96765	-0.08271674
212	0x3da7bd98	0.08190459
213	0x3d18762c	0.037222072
214	0xbe660e33	-0.22466354
215	0xbe802d1e	-0.25034422
216	0x3dd563f1	0.10419453
217	0xbabe6fca	-0.0014529165
218	0xbd217ac4	-0.03942372
219	0xbdbb29ff	-0.091388695
220	0x3db94c85	0.09047798
221	0xbda6dec1	-0.08147956
222	0x3bbb1740	0.0057095587
223	0xbd59a28c	-0.053133532
224	0x3e90746c	0.28213823
225	0xbca4e5a7	-0.020129038
226	0x3dce45c4	0.100719005
227	0xbe976a65	-0.2957336
228	0xbd359c19	-0.04433832
229	0xbd8a2428	-0.067451775
230	0x3d142914	0.036171988
231	0x3dab9c33	0.08379402
232	0x3e439fb2	0.19103888
233	0x3e3a885f	0.18216084
234	0x3e1d4d96	0.15361628
235	0x3e235877	0.15951715
236	0xbe30d4aa	-0.17268625
237	0xbe2935cb	-0.16524427
238	0xbd311579	-0.04323337
239	0xbe8afe29	-0.27147034
240	0x3e52dc5f	0.20591877
241	0x3e4e8488	0.20167744
242	0xbe3fc286	-0.18726549
243	0xbcf70201	-0.030152323
244	0xbbe29dfa	-0.006915805
245	0x3a9c303c	0.001191623
246	0xbd1824d3	-0.037144493
247	0x3e6e6c3e	0.23283479
248	0x3de3f7f0	0.11131275
249	0xbda311ac	-0.07962355
250	0x3d6372c5	0.055529375
251	0xbdffc041	-0.124878414
252	0xbe6864de	-0.22694728
253	0x3e05ebd4	0.13078243
254	0x3e826fb3	0.25475845
255	0x3c9056e9	0.017619567

arith.constant2 f4 [16]
0	0xbe296630	-0.16542888
1	0xc0318c08	-2.7741718
2	0xc04b81c1	-3.1797945
3	0xc057e83f	-3.3735502
4	0xbfa48a75	-1.2854754
5	0xc03486e4	-2.820733
6	0xc0ac2e4e	-5.3806524
7	0xbfdc6d5e	-1.7220876
8	0xc072dacc	-3.7946043
9	0xc0423563	-3.0345085
10	0x3c1f9200	0.009739399
11	0xbe5f21cc	-0.21790236
12	0xbf5fa2c6	-0.8735775
13	0xc09b65bf	-4.85617
14	0x3d1fa7c1	0.038978342
15	0xbeebc5eb	-0.46049437

arith.constant3 f4 [16]
0	0x3dffc380	0.124884605
1	0x3da460e4	0.08026293
2	0x3df287fa	0.11842342
3	0x3dddb6e2	0.10825898
4	0x3c872e92	0.016501699
5	0x3d9515bd	0.07279537
6	0x3e1828dc	0.14859337
7	0x3d517277	0.051134553
8	0x3d9b6905	0.0758839
9	0x3c560641	0.0130630145
10	0x3ec172f5	0.37783018
11	0x3d988de5	0.07448939
12	0x3cac0b61	0.02100152
13	0x3c86b1e1	0.016442241
14	0x4038ae2b	2.8856304
15	0x3d0cc795	0.034370024

arith.constant4 f4 [64]
0	0xbe93b8b0	-0.28851843
1	0xbda3655c	-0.07978317
2	0xbfa8662e	-1.3156183
3	0xbf42253a	-0.75838053
4	0xbf14818c	-0.5801017
5	0xbea73904	-0.32660687
6	0xbec4797e	-0.3837394
7	0xbf0866e6	-0.5328201
8	0xbee359ae	-0.44404358
9	0xbe88dda4	-0.26731598
10	0xbf4ff566	-0.81233823
11	0x3d9c741c	0.076393336
12	0xbeaead9e	-0.34116834
13	0xbf94e806	-1.1633308
14	0xbfbe9f4e	-1.4892366
15	0xbeae134e	-0.33999103
16	0xbe270234	-0.16309434
17	0xbe792857	-0.24331795
18	0xbe232b44	-0.15934473
19	0x3d2d6000	0.04232788
20	0xbea3d71e	-0.3200006
21	0xbf59dc32	-0.85101616
22	0xbf1e093b	-0.61732835
23	0xbea410d1	-0.3204408
24	0xbed6bdf3	-0.41941795
25	0x3dd9a306	0.106267974
26	0xbf49a1b9	-0.78762394
27	0xbef62f9a	-0.48083192
28	0xbeca8c30	-0.3956008
29	0xbe8dd021	-0.27697852
30	0xbe586fff	-0.21136473
31	0xbf1c2c0c	-0.6100471
32	0xbc37cf70	-0.011218891
33	0xbe7a838f	-0.24464248
34	0xbe45b450	-0.19307065
35	0xbeb49782	-0.3527184
36	0xbfb4b348	-1.4117212
37	0xbf775d58	-0.96626806
38	0xbf448df4	-0.76779103
39	0xbef5dd79	-0.48020533
40	0xbfae441c	-1.3614535
41	0xbe531c30	-0.20616221
42	0xbfc9228c	-1.5713668
43	0xbe9cf21b	-0.30653462
44	0xbf61b20b	-0.88162297
45	0xbf22611b	-0.6342942
46	0xbe5c7db2	-0.21532324
47	0xbef71f61	-0.48266128
48	0xbe93e7b3	-0.2888771
49	0xbedcd45a	-0.4313076
50	0xbddff820	-0.10935998
51	0xbe0d8168	-0.13818896
52	0xbf8c7bf2	-1.0975325
53	0xbe93af22	-0.28844553
54	0xbea6f82c	-0.32611215
55	0xbf7af86c	-0.9803531
56	0xbf8c9964	-1.0984311
57	0xbfc669ee	-1.5501077
58	0x3ddaba7a	0.10680099
59	0xbe682c68	-0.2267319
60	0xbfcd1c43	-1.602425
61	0xbf48ed53	-0.7848713
62	0xbe9ec81b	-0.31012043
63	0xbf520434	-0.82037663

arith.constant5 f4 [64]
0	0x3ff116fa	1.8835137
1	0x3fc7feab	1.5624593
2	0x3f3177e0	0.6932354
3	0x3f1a5c0b	0.60296696
4	0x40151d50	2.329914
5	0x3f3a6b00	0.7281952
6	0x3f81760d	1.0114151
7	0x4002264d	2.0335877
8	0x3fb2a137	1.3955449
9	0x3f3b7ebc	0.73240256
10	0x3f961c4d	1.1727387
11	0x3fd925e5	1.696469
12	0x3fde77f4	1.7380357
13	0x3f5b2691	0.8560572
14	0x3f7d6c82	0.98993695
15	0x40268738	2.602003
16	0x400cee4b	2.2020442
17	0x400b32d1	2.1749766
18	0x3fef63bb	1.870231
19	0x403682ca	2.8517327
20	0x3ff0799e	1.8787115
21	0x3f96e8c4	1.1789784
22	0x3f3303f4	0.69927907
23	0x4022cd43	2.5437782
24	0x3f84f4a6	1.0387161
25	0x404683cf	3.101795
26	0x3f850cf5	1.0394579
27	0x3f3579f0	0.70889187
28	0x3fd899cc	1.6921935
29	0x40258843	2.5864418
30	0x3f68394a	0.90712416
31	0x3f8f774e	1.1208284
32	0x4039565d	2.8958962
33	0x3ffd9957	1.9812421
34	0x4011f1da	2.2803864
35	0x3fed51e6	1.8540618
36	0x3f7e6a40	0.99380875
37	0x3f81b421	1.0133096
38	0x3f9956c8	1.1979609
39	0x3f996d98	1.198657
40	0x3f34e2e9	0.7065874
41	0x4004a1c6	2.0723739
42	0x3eee2092	0.46509224
43	0x3f9bf92b	1.2185415
44	0x3f953655	1.1657206
45	0x3fa0f68d	1.2575241
46	0x3fb82f61	1.4389459
47	0x3fe3b828	1.7790575
48	0x3fb44d13	1.4086021
49	0x3f99e856	1.2024028
50	0x3f92b4e7	1.1461457
51	0x3fe07b60	1.7537651
52	0x3f650190	0.8945551
53	0x40186a45	2.3814862
54	0x3fc623f0	1.5479717
55	0x3f499d5e	0.7875575
56	0x3f657c53	0.8964283
57	0x3f8fef96	1.1244991
58	0x40161789	2.3451865
59	0x3facb3bc	1.349235
60	0x3f5eec8b	0.87079686
61	0x3f57a2d2	0.8423282
62	0x3fb1bc44	1.3885579
63	0x3ed044b2	0.4067741

arith.constant7 f4 [256]
0	0x3e4a06ab	0.19729106
1	0xbcebf7dd	-0.028804714
2	0x3e91af6d	0.28454152
3	0x3c505094	0.012714524
4	0x3dff3bb6	0.12462561
5	0x3dbf742b	0.09348329
6	0x3dee95f8	0.11649698
7	0x3d761d7d	0.060086716
8	0x3e612d0f	0.21989845
9	0x3da7ffd8	0.08203095
10	0x3d997ca3	0.07494476
11	0x3d8f3197	0.069918804
12	0xbd21486c	-0.039375708
13	0x3e4f163b	0.20223324
14	0x3e178fc9	0.14800943
15	0x3e3a8b51	0.18217207
16	0x3db8ae95	0.09017674
17	0xbcd38ef8	-0.025825009
18	0xbdc5049c	-0.0962002
19	0x3d430275	0.047609765
20	0x3da1e2db	0.07904597
21	0x3e74ee7a	0.23919097
22	0x3d8c40c0	0.068482876
23	0x3ddecaeb	0.10878547
24	0x3d1582e9	0.0365018
25	0x3de3e057	0.11126774
26	0x3da61950	0.08110297
27	0x3dfe9a74	0.12431803
28	0xbc9a9f6b	-0.018874845
29	0x3be06935	0.006848479
30	0x3dce6a99	0.10078926
31	0x3dbbce09	0.091701575
32	0x39a54240	0.00031520613
33	0x3e21b620	0.15792131
34	0x3dad35b4	0.08457509
35	0xbd2a995c	-0.04165016
36	0x3e04a612	0.12953976
37	0x3dfcdfd2	0.12347378
38	0x3e4e0428	0.20118773
39	0x3dc2bbb6	0.09508459
40	0x3dae0ec9	0.08498914
41	0x3dd685a6	0.1047471
42	0xbdbca58d	-0.09211264
43	0xbdc0117e	-0.09378336
44	0xbc3cb5bb	-0.011517937
45	0x3e0395cc	0.12850112
46	0x3dfb6584	0.12275222
47	0xbd474510	-0.048649848
48	0x3e06a478	0.13148677
49	0xbd76fecc	-0.060301587
50	0x3d87c8b3	0.06630077
51	0x3c2787c1	0.010225237
52	0xbdb571d4	-0.088596016
53	0x3dcaee25	0.09908704
54	0x3e3c7926	0.1840559
55	0x3d0fa6bd	0.035071123
56	0x3d17414e	0.036927514
57	0x3df9820a	0.12183006
58	0x3e4edf1e	0.202023
59	0xbd5e3ce3	-0.054257285
60	0x3e2bad2d	0.1676528
61	0x3e3276f1	0.17428185
62	0xbda2ff62	-0.07958867
63	0x3bc42fa6	0.0059871254
64	0x3dc0338b	0.09384831
65	0x3d7dee5f	0.061994907
66	0x3e15b680	0.146204
67	0x3e63d810	0.2225039
68	0x3e2f8c7a	0.17143431
69	0x3dfa50d3	0.12222447
70	0x3d1cabf0	0.03824991
71	0xbcfc499b	-0.030796817
72	0x3dc78368	0.09741861
73	0x3e86dc6d	0.26340047
74	0x3d9e5e0a	0.0773278
75	0x3e09c5fa	0.13454428
76	0x3dd70e34	0.10500756
77	0x3e4b7f69	0.19872822
78	0x3e0a7114	0.13519698
79	0x3e19f12f	0.1503341
80	0x3d691b5c	0.056910858
81	0x3dc9e172	0.098574534
82	0xbe0066b1	-0.12539174
83	0xbb981d50	-0.004642166
84	0x3e44757b	0.1918544
85	0x3d3834ff	0.044972416
86	0x3db3da61	0.08781887
87	0x3cd66511	0.02617124
88	0x3e07c6c5	0.13259418
89	0xbca395c2	-0.019968871
90	0x3d8c0cf5	0.06838409
91	0xbc9404b9	-0.018068658
92	0xbcd0f3a1	-0.025506796
93	0x3d90e0cf	0.07074129
94	0x3db5157c	0.088419884
95	0x3cdace69	0.026709752
96	0x3dc03375	0.09384815
97	0x3e0394f9	0.12849797
98	0x3d82d5dd	0.063884474
99	0x3e1c5b43	0.15269189
100	0x3d18a590	0.037267268
101	0x3e586d1c	0.21135372
102	0xbdf58bea	-0.11989577
103	0x3d573e65	0.05254974
104	0x3dd722eb	0.10504707
105	0xbd0a308a	-0.033737697
106	0x3e4d785f	0.20065449
107	0x3e01015a	0.12598172
108	0x3dfd31d5	0.1236302
109	0x3e2a041e	0.16603133
110	0x3d61cbb4	0.055125907
111	0x3dc0c301	0.09412194
112	0x3e2ade3b	0.16686337
113	0xbd1e5da4	-0.03866352
114	0x3e81a2a3	0.25319394
115	0x3e02c580	0.12770653
116	0xbcb849ab	-0.022496065
117	0x3d62f253	0.05540688
118	0x3befeb81	0.0073217754
119	0x3da8fad2	0.08250965
120	0x3b243b23	0.0025059662
121	0x3e45d5d2	0.19319847
122	0x3cc9bfc9	0.024627583
123	0xbc907b56	-0.017636936
124	0x3de80be7	0.11330395
125	0x3cd8334a	0.026391644
126	0xbd37e9bd	-0.044900645
127	0x3e7cb724	0.24679238
128	0xbd87a0b2	-0.06622447
129	0x3e17f97a	0.14841262
130	0x3e3337a0	0.17501688
131	0xbdbec6d8	-0.0931527
132	0x3d9c7845	0.07640127
133	0x3d1a0ca6	0.03760972
134	0x3da80e57	0.0820586
135	0x3d61b113	0.05510051
136	0x3da509fd	0.08058546
137	0x3dee9455	0.11649386
138	0xbcc44ddd	-0.02396291
139	0x3d997d9a	0.0749466
140	0x3dcf530d	0.101232626
141	0x3d6d2bd7	0.057903137
142	0xbd930c49	-0.071800776
143	0x3d49f896	0.049309336
144	0x3e2778eb	0.1635472
145	0x3e31848f	0.17335723
146	0x3e2028c4	0.15640551
147	0x3d7839ee	0.06060212
148	0x3d365c59	0.044521663
149	0x3d29e8eb	0.041481894
150	0x3e1048ea	0.14090315
151	0x3d562fd7	0.052291717
152	0xbe14e711	-0.1454127
153	0xbd9457a8	-0.072432816
154	0x3dc39559	0.0954997
155	0xbc9717dd	-0.018443996
156	0x3dd8aaa7	0.10579424
157	0x3e07dc94	0.13267738
158	0xbd6d5371	-0.057940904
159	0x3dca3fe1	0.09875465
160	0x3e178923	0.14798407
161	0x3d84fe91	0.06493867
162	0x3dd0e0a4	0.10199097
163	0x3d549bc8	0.051906377
164	0x3d64ee56	0.055891357
165	0x3dc8d3e4	0.0980604
166	0x3e44ece3	0.1923099
167	0xbbb0fe99	-0.005401444
168	0x3e08b780	0.1335125
169	0x3db99451	0.09061492
170	0x3cb1c0ef	0.021698443
171	0x3e48898c	0.1958372
172	0x3df825f6	0.121166155
173	0x3deebe35	0.11657373
174	0x3d696357	0.056979503
175	0x3e39aa6b	0.18131416
176	0xbc6e1a3d	-0.014532623
177	0x3c6ff13e	0.014644919
178	0x3dda0822	0.106460825
179	0x3d43d396	0.047809206
180	0x3d8a40e4	0.06750658
181	0x3e49728f	0.19672607
182	0x3dd3847b	0.10328003
183	0x3db94f49	0.090483256
184	0x3e2a2774	0.16616613
185	0x3d8a603a	0.06756635
186	0x3ddc3254	0.10751787
187	0x3dbbae34	0.09164086
188	0x3d73b74b	0.059500974
189	0x3d2ae685	0.041723747
190	0x3d984c26	0.07436399
191	0x3db97e62	0.09057309
192	0x3b99ed00	0.004697442
193	0x3dd5b4d6	0.10434882
194	0x3e0cff2c	0.13769215
195	0x3e5d6817	0.21621738
196	0x3ca8ae5c	0.020590954
197	0x3ba7ef31	0.0051249494
198	0x3da9f63a	0.08298917
199	0x3e113af3	0.14182644
200	0x3e2ca838	0.16861045
201	0xbd8f00ee	-0.06982599
202	0xbd3a041d	-0.04541408
203	0x3e145bc1	0.14488126
204	0x3d9c6edb	0.076383315
205	0x3da9acba	0.08284898
206	0x3e302132	0.17200163
207	0xbd520cef	-0.051281866
208	0x3dda98b1	0.10673655
209	0x3d5811a3	0.052751195
210	0x3debe8bb	0.11518999
211	0xbceb5f88	-0.028732076
212	0x3e053098	0.13006818
213	0x3e276484	0.16346937
214	0x3d7a208a	0.061066188
215	0x3e1a1b9d	0.15049596
216	0x3dcfded6	0.101499245
217	0xbd8d1863	-0.06889417
218	0x3df777fa	0.120834306
219	0x3dac811e	0.08423065
220	0x3de8ae75	0.113614
221	0x3e35e286	0.17762193
222	0x3d9f03f6	0.07764427
223	0x3ce5356a	0.027979571
224	0xbd059ea1	-0.032621983
225	0xbd486613	-0.04892547
226	0x3d6312d2	0.05543787
227	0x3d9a3e03	0.07531359
228	0x3cc12a68	0.023579791
229	0x3d6bc14a	0.05755738
230	0x3e040972	0.12894228
231	0x3e22fa71	0.15915848
232	0x3d9fb6b7	0.07798522
233	0x3e4863af	0.19569276
234	0x3e1084d7	0.14113174
235	0xbda0dad1	-0.07854236
236	0x3d73b4c2	0.059498556
237	0x3e434d10	0.19072366
238	0xbcd4cc14	-0.025976218
239	0x3deae487	0.114693694
240	0x3e6541e7	0.22388421
241	0x3d69a9a5	0.05704655
242	0x3dbee19e	0.09320377
243	0xbbe7d3d6	-0.0070748134
244	0x3e467fa0	0.19384623
245	0x3e23f365	0.16010816
246	0x3e594e09	0.21221174
247	0xbcb4e01c	-0.02207952
248	0x3e26df32	0.1629608
249	0x3e4b25fe	0.19838712
250	0x3d23acc8	0.0399597
251	0x3de71c26	0.11284666
252	0xbc119299	-0.008885049
253	0x3dfd2f34	0.12362519
254	0xbd67f7ae	-0.05663269
255	0x3e4261b9	0.1898259

arith.constant8 f4 [128]
0	0xbf9a3c82	-1.2049716
1	0x409f6163	4.980638
2	0x3fd95e04	1.6981816
3	0x3fc2c588	1.5216532
4	0x4083c647	4.117954
5	0x3ef60649	0.4805167
6	0x40b01ab1	5.503258
7	0xbf284f8d	-0.65746385
8	0x4095da63	4.6829085
9	0x3f26be1f	0.6513385
10	0x40880a73	4.2512755
11	0xc01c869e	-2.4457164
12	0x40317ae4	2.7731256
13	0x40208fdb	2.5087802
14	0x405e2100	3.4707642
15	0x3f6264f6	0.88435304
16	0xbf33d889	-0.7025228
17	0x4010247a	2.2522264
18	0xbf76ac56	-0.96356714
19	0xbe333608	-0.1750108
20	0x401781d7	2.3672998
21	0x3f345b14	0.70451474
22	0x402cccd0	2.7000008
23	0x400bf918	2.1870785
24	0x40086855	2.131368
25	0x402e0c9b	2.7195194
26	0x40a39ec3	5.11313
27	0x400ad317	2.169134
28	0x406fc897	3.746618
29	0xbfec0d0b	-1.844148
30	0x4060b253	3.510884
31	0xbfa28e1c	-1.2699618
32	0x40188e93	2.383702
33	0x3fd36377	1.6514729
34	0x4066e552	3.6077466
35	0x3fa14dfc	1.2601924
36	0x40523d7d	3.285003
37	0x4035af10	2.83881
38	0x4041a952	3.0259595
39	0x40638b48	3.555376
40	0x3f9f98db	1.2468523
41	0x402c5eae	2.6932788
42	0xbde3e27b	-0.11127182
43	0x401b932f	2.4308584
44	0x3f9e6e76	1.237746
45	0xbf82ab72	-1.0208571
46	0x40b2575b	5.5731635
47	0x3feb5b9a	1.838733
48	0x3ff620bf	1.9228743
49	0xc034ea90	-2.8268166
50	0x4030777b	2.7572925
51	0x3fa6f4d9	1.3043472
52	0x40a1616a	5.0431414
53	0x404a6e6f	3.1629903
54	0x406c2531	3.68977
55	0x3fdedbab	1.7410787
56	0x3ffa68da	1.9563248
57	0x4015bdec	2.339717
58	0x4045e7d2	3.0922742
59	0xc0186357	-2.3810632
60	0x3fb95a75	1.448073
61	0xbff573f8	-1.9176016
62	0x407b5497	3.927038
63	0x401b55f2	2.4271207
64	0x4091fba2	4.561967
65	0x3fc02f8f	1.5014514
66	0xbfac0b26	-1.3440902
67	0xc008da72	-2.1383328
68	0x4062a93a	3.5415788
69	0x3fb1a370	1.3878002
70	0x3fe7fa20	1.8123207
71	0xbfb28b11	-1.394869
72	0x402af9d3	2.671498
73	0x3fe98677	1.824416
74	0xc00b2031	-2.1738398
75	0x401a2e22	2.4090657
76	0x40053799	2.0815184
77	0x400f2402	2.2365727
78	0xc03405bb	-2.8128498
79	0xc05caa9b	-3.447913
80	0x3faf9b26	1.3719223
81	0x3f81c5cd	1.0138489
82	0xbfa79ddf	-1.3095053
83	0x4098c712	4.7743006
84	0x3fda70a7	1.7065629
85	0x402be682	2.685944
86	0x4096d551	4.7135396
87	0x40418883	3.023957
88	0x401783ea	2.3674264
89	0x405699d7	3.3531396
90	0xc007be76	-2.1209998
91	0x3ff338a5	1.9001662
92	0x4056342b	3.346934
93	0x40b77f14	5.7342625
94	0x4050e4db	3.2639682
95	0x3ccc73f5	0.024957636
96	0x3fc83985	1.5642554
97	0xc093d24a	-4.61942
98	0xc01a88ab	-2.4145916
99	0x3f9ac39d	1.2090946
100	0x3fef07ec	1.8674293
101	0x4064f6cb	3.577563
102	0x3fec2cc4	1.8451161
103	0x4087ed50	4.247719
104	0xc0270c0f	-2.610111
105	0xbfc29a04	-1.5203252
106	0xbfbbcff9	-1.4672843
107	0x3fc22aa4	1.5169263
108	0x3ec8404c	0.39111555
109	0x406a8a7b	3.6647022
110	0xbfce209d	-1.6103703
111	0xbee3e5b1	-0.44511178
112	0x40a0f233	5.0295653
113	0x40495baf	3.146221
114	0xbec086d4	-0.37602866
115	0x400e6335	2.224805
116	0x4068f604	3.6400156
117	0x4005440d	2.0822785
118	0x404ca3f6	3.1975074
119	0x4053296e	3.2994037
120	0x3f8f254c	1.1183257
121	0x4085c390	4.1801224
122	0x3fe28195	1.7695795
123	0x40292cdb	2.6433628
124	0x404d6978	3.2095623
125	0x4026b8a8	2.6050205
126	0x3ff40ff9	1.9067374
127	0x3f0d940a	0.55304015

arith.constant9 f4 [64]
0	0xbfab1948	-1.336709
1	0x4017b275	2.3702672
2	0x3ff2810f	1.8945636
3	0x40532751	3.2992747
4	0x3e5894e3	0.21150546
5	0x3fe7bd28	1.8104601
6	0x4006862d	2.1019394
7	0x4033620b	2.802859
8	0x3f5162e8	0.81791544
9	0x3fb0b8fa	1.380645
10	0x40456fd8	3.0849514
11	0x3fd29840	1.6452713
12	0x3fce86a9	1.6134845
13	0x408015fa	4.0026827
14	0x3fd69ef3	1.6767257
15	0x401ad40d	2.4191926
16	0xbf9733e4	-1.1812711
17	0x3fae6ca5	1.3626906
18	0x3ff28d56	1.8949382
19	0x400749d1	2.1138804
20	0x4070d763	3.7631462
21	0x3ff0e0e2	1.8818629
22	0x4005e220	2.0919266
23	0x40390369	2.8908331
24	0x40213500	2.5188599
25	0x3fc6554f	1.5494784
26	0x3fb1b35f	1.3882865
27	0x404c914d	3.1963685
28	0x3ff09dde	1.8798177
29	0x400ff6be	2.249435
30	0x400e64e8	2.2249088
31	0xbed9751f	-0.4247217
32	0x401e768b	2.4759853
33	0x3ff56fbd	1.9174725
34	0x3fa2671c	1.2687716
35	0x4052b121	3.292061
36	0x400b1fb9	2.1738112
37	0x3fc93a93	1.5721
38	0x4048d168	3.1377811
39	0x3fde2424	1.7354779
40	0x401b19f5	2.4234593
41	0x4073800d	3.8046906
42	0x3fb2096a	1.3909123
43	0x4001f748	2.0307178
44	0x3f34814b	0.70509785
45	0x3f604998	0.87612295
46	0x401cd37e	2.4504085
47	0x3f0a16e0	0.53941154
48	0x4041ffa5	3.0312283
49	0xbfb7afaf	-1.4350489
50	0x3f203208	0.6257634
51	0x3e0a0687	0.13479052
52	0x4015a1cd	2.3380005
53	0x3ffe0977	1.9846638
54	0x402c0b8a	2.6882043
55	0x3f9610b8	1.1723852
56	0x3fab3e7e	1.3378446
57	0x3f85c07a	1.0449364
58	0x407a76bb	3.9134967
59	0xbedb23cf	-0.42800757
60	0xbda5bf8d	-0.08093176
61	0x3fac376a	1.3454411
62	0x4057c0c0	3.3711395
63	0x3f3edc9e	0.74555385

arith.constant10 f4 [32]
0	0x4036e8ea	2.857966
1	0xbf232322	-0.63725483
2	0x3e95ad88	0.29233956
3	0x3f2120c2	0.6294061
4	0xbf5b272c	-0.85606647
5	0xbe62ddd9	-0.2215494
6	0x3f1cfcb0	0.6132307
7	0x3fff4a7a	1.9944603
8	0xbf6f721e	-0.93533504
9	0xc02198e9	-2.524958
10	0x3fe5f813	1.7966331
11	0xbe7b35ca	-0.24532238
12	0xbfeb5b57	-1.838725
13	0xbf8b4d04	-1.0882878
14	0xbd469949	-0.048486028
15	0x3f28a2ed	0.65873605
16	0xbf543f98	-0.82909536
17	0x3f7842d2	0.9697696
18	0x3f96051e	1.1720312
19	0x3f8dc7a1	1.1076547
20	0x3e7c15aa	0.24617639
21	0x3fa433a8	1.2828264
22	0x40351f8c	2.8300505
23	0x3fa68f56	1.3012493
24	0x4063dc5f	3.5603254
25	0x3f188f5f	0.59593767
26	0x4076ad62	3.8543324
27	0x40282bb8	2.6276684
28	0xbe4cc94f	-0.19998668
29	0x3fd31637	1.6491154
30	0x3fc8e385	1.5694433
31	0x40067f20	2.101509

arith.constant11 f4 [256]
0	0xbd6a656f	-0.05722564
1	0x3c606a03	0.01369715
2	0xbde72cf2	-0.112878695
3	0x3c21c803	0.009874347
4	0xbd7ab82e	-0.061210804
5	0x3cd7baba	0.026334155
6	0xbd79b45a	-0.060963012
7	0x3d1c84d5	0.038212616
8	0xbada8681	-0.0016672165
9	0xbd7c635b	-0.06161819
10	0xbd614a91	-0.055002753
11	0xbca97518	-0.020685717
12	0x3d6fe6b2	0.058569618
13	0xbcad9f6f	-0.021194188
14	0xbcc3acc0	-0.023886085
15	0xbd3fbc8c	-0.04681067
16	0xbcca6b61	-0.024709405
17	0x3d4b6bd1	0.04966337
18	0x3d450c86	0.048107646
19	0xbc1c6398	-0.009545229
20	0xbd518605	-0.0511532
21	0x3d0eb952	0.034844704
22	0xbd092ea7	-0.033491757
23	0xbc5982b5	-0.013275792
24	0x3c29cd56	0.010363897
25	0xbc208a9c	-0.009798672
26	0xbd1f286c	-0.03885691
27	0x3c9f4423	0.01944167
28	0xbcd461fd	-0.02592563
29	0xbc73632c	-0.014855187
30	0xbd7e919e	-0.06215059
31	0xbd1490f2	-0.036271043
32	0xbcd57dc0	-0.026060939
33	0xbd2fe531	-0.042943183
34	0x3c6c64bd	0.014428315
35	0xbc5698d2	-0.013097959
36	0xbd0d4d10	-0.03449732
37	0xba0f1354	-0.0005457897
38	0x3b649b90	0.0034882762
39	0x3d304066	0.043030165
40	0xbc95da88	-0.01829268
41	0xbc883f44	-0.01663173
42	0xbd58a2dc	-0.05288969
43	0xbd21387b	-0.039360505
44	0x3dabecdf	0.08394789
45	0x3b8e900a	0.004350667
46	0x3d425c17	0.047451105
47	0xbcdb506a	-0.026771743
48	0xbd4df8a9	-0.05028597
49	0x3d45c4e1	0.04828346
50	0x3d1b57fe	0.037925713
51	0xbd2dd85c	-0.042442665
52	0xbc08f97e	-0.008360265
53	0xbd3658c5	-0.04451825
54	0xbdb28403	-0.087165855
55	0xbd072857	-0.032997455
56	0xbddfa91b	-0.10920926
57	0xbd59b977	-0.05315539
58	0x3ab406e0	0.0013734959
59	0x3d271546	0.040791772
60	0xbcd127bb	-0.02553164
61	0x3b0fe990	0.0021959282
62	0x3c901f71	0.017593117
63	0xbcdc9443	-0.026926165
64	0xbd35fadb	-0.044428688
65	0xbcbf2e58	-0.023337528
66	0x3d14309d	0.036179174
67	0x3cbc466f	0.022982804
68	0xbce5599b	-0.027996829
69	0xbd32f022	-0.04368604
70	0x3d429719	0.04750738
71	0xbc6965dc	-0.014245477
72	0x3c85785a	0.01629274
73	0x3d56db72	0.052455373
74	0xbd0fe58a	-0.035131015
75	0xbd4b24eb	-0.049595755
76	0x3d630ac3	0.055430185
77	0xbb8a6f69	-0.004224707
78	0xbdb36253	-0.08758988
79	0xbca9a11c	-0.020706706
80	0x3ca36c79	0.019949185
81	0xbd04e2b7	-0.032442775
82	0x3ccc1fd0	0.024917513
83	0xbd2f86ef	-0.042853292
84	0xbd41807d	-0.047241677
85	0xbc8ef074	-0.017448641
86	0xbc302ac3	-0.010752383
87	0xbd9909b7	-0.07472556
88	0xbd422bc6	-0.047405027
89	0xbc8ab163	-0.016930288
90	0x3c098f0a	0.00839592
91	0xbb871216	-0.004122029
92	0x3d59987e	0.053123944
93	0x3d9d5617	0.07682436
94	0xbc591693	-0.013250011
95	0x3cc5cc1a	0.024145175
96	0xbd42491c	-0.047433004
97	0x3cd6d6fb	0.026225558
98	0xbc354b5f	-0.011065333
99	0xbd83b614	-0.06431213
100	0x3da15efe	0.078794464
101	0xbcabe155	-0.02098147
102	0xbc97d3e6	-0.018533658
103	0xbd5f91e4	-0.05458249
104	0xbd37cd97	-0.0448738
105	0xbc67544e	-0.014119221
106	0xbcc45138	-0.02396451
107	0x3c82163f	0.015879748
108	0xbd127661	-0.035757426
109	0xbd275699	-0.04085407
110	0x3dccd708	0.100019515
111	0x3c596fa8	0.01327125
112	0xbd012018	-0.031524748
113	0x3d330a68	0.043711096
114	0xbd1e5230	-0.0386526
115	0xbba61d3d	-0.0050694034
116	0xbc987e86	-0.018615019
117	0xbd43290e	-0.047646575
118	0x3d0daf59	0.034591053
119	0xbc0f794c	-0.008756947
120	0x3c329565	0.010899876
121	0xbd112a0f	-0.0354405
122	0xbd400d0a	-0.046887435
123	0xbd764955	-0.06012853
124	0xbd25cf33	-0.040480804
125	0xbd2f4010	-0.042785704
126	0xbd0b7da7	-0.03405538
127	0x3cc73136	0.024315458
128	0x3da1aa68	0.078938305
129	0x3d55e163	0.0522169
130	0xbcb277a7	-0.02178557
131	0xbdc60aee	-0.096700534
132	0xbcde412d	-0.027130688
133	0xbc6489da	-0.013948882
134	0xbdad5a25	-0.08464459
135	0x3d928243	0.07153752
136	0xbe0421a0	-0.12903452
137	0x3a9200b1	0.0011139122
138	0xbd258e04	-0.04041864
139	0xbdb2f070	-0.08737266
140	0xbc292f54	-0.010326225
141	0x3b18354e	0.0023225131
142	0xbd80ec01	-0.06295014
143	0xbc771dc6	-0.015082782
144	0xbc9c7c3f	-0.019102214
145	0xbd68f819	-0.05687723
146	0xbc5ca751	-0.013467626
147	0xbc6a55e7	-0.014302707
148	0xbc8bfa03	-0.017086988
149	0xbe02d44a	-0.12776294
150	0x3c80c8b7	0.015720708
151	0x3ceee21f	0.029160557
152	0xbd3f8aa5	-0.04676308
153	0xbc9b7443	-0.018976336
154	0x3c2f405a	0.010696495
155	0xbab969f4	-0.0014145956
156	0x3b36b926	0.0027881353
157	0xba322be5	-0.0006796702
158	0xbd2f6543	-0.04282118
159	0xbd698846	-0.057014726
160	0x3d40b9b1	0.04705209
161	0xbd784b60	-0.06061876
162	0x3d3bea31	0.04587764
163	0xbca2a1fa	-0.019852627
164	0x3ba2f291	0.004972764
165	0xbc7bb7c1	-0.015363635
166	0xbc3dd210	-0.011585727
167	0x3cb8f06f	0.022575585
168	0xbc93641e	-0.017992076
169	0xbc6307ce	-0.013856841
170	0xbcaf956b	-0.021433553
171	0x3d20b5f3	0.03923602
172	0xbcc64e3c	-0.024207227
173	0xbdad43ab	-0.08460172
174	0x3b2a8661	0.0026020037
175	0x3cc9586b	0.024578294
176	0xbc0e32ca	-0.008679101
177	0xbceb6420	-0.028734267
178	0xbd1c1030	-0.038101375
179	0x3d82cd51	0.06386817
180	0x3cc4c607	0.024020208
181	0x3a73eabd	0.0009304693
182	0x3d2d78cc	0.04235153
183	0xbc921b74	-0.017835356
184	0x389501a6	7.105181e-05
185	0xbc8a3b9b	-0.016874125
186	0x3bbe2be5	0.0058035725
187	0xbd64e89e	-0.055885904
188	0x3d088577	0.033330407
189	0xbd02400b	-0.031799357
190	0xbcb310ae	-0.02185854
191	0xbd90c845	-0.070694484
192	0xbd86ddf0	-0.065853
193	0x3c2f45d1	0.010697798
194	0x3d7290ee	0.059220247
195	0x3d3521df	0.044221755
196	0xbc96d32a	-0.018411238
197	0xbdf78d27	-0.120874695
198	0xbceb2aae	-0.028706875
199	0xbacf9bca	-0.0015839275
200	0xbc21477d	-0.009843704
201	0x3d6b56da	0.057455875
202	0x3d5afa8f	0.053461608
203	0x3da1b3d0	0.07895625
204	0x3c00072f	0.007814213
205	0x3cc55e0d	0.024092698
206	0xbc7a6d25	-0.015284811
207	0x3d9e5403	0.07730868
208	0xbc666d55	-0.014064153
209	0xbd2b31ce	-0.041795544
210	0xbc8849da	-0.016636778
211	0xbd687f9b	-0.05676232
212	0xbd8e098b	-0.06935414
213	0x3c05bac4	0.008162204
214	0xbcf5c288	-0.029999986
215	0xbd3389b7	-0.043832507
216	0x3ceaa3f5	0.028642634
217	0xbd8b22ad	-0.06793723
218	0xbd65dc7f	-0.056118485
219	0xbc958032	-0.018249605
220	0xbc452132	-0.01203184
221	0xbd7b5381	-0.061358932
222	0xbbb53434	-0.0055299047
223	0xbd452f8e	-0.048141055
224	0xbb5ae00c	-0.0033397703
225	0xbd0f9d16	-0.03506192
226	0xbd55732a	-0.052111782
227	0x3c0ae1a0	0.008476645
228	0xbcf33820	-0.029689848
229	0xbcde9bad	-0.027173841
230	0x3c224bae	0.009905739
231	0x3d3e5336	0.046466075
232	0xbdfc192e	-0.1230949
233	0xbcdc17bd	-0.026866788
234	0xbd0f4543	-0.034978162
235	0x3d23caec	0.039988443
236	0x3d5d4867	0.054024126
237	0xbd97352d	-0.07383189
238	0xbc51bcd9	-0.012801372
239	0x3cd40389	0.025880592
240	0x3d99449b	0.074837886
241	0x3b575592	0.00328574
242	0x3de576f0	0.11204326
243	0x3ced13b2	0.028940056
244	0x3d1c812a	0.038209118
245	0xbd528366	-0.051394843
246	0xbc362d36	-0.011119178
247	0x3c5b1060	0.013370603
248	0xbd133149	-0.035935674
249	0xbc5778a5	-0.0131513225
250	0xbcfa8801	-0.03058243
251	0x3cddc4c3	0.027071362
252	0x3d82d06d	0.0638741
253	0xbc89953c	-0.016794793
254	0x3cde65ee	0.027148213
255	0x3d679377	0.056537118

arith.constant12 f4 [128]
0	0xbe0aafd9	-0.13543643
1	0xbdb1082e	-0.08644138
2	0xbe1bca06	-0.15213785
3	0xbe25186d	-0.16122599
4	0xbe272dd3	-0.16326074
5	0xbe3a7017	-0.18206821
6	0xbd529a9a	-0.05141697
7	0xbe0024be	-0.12514016
8	0xbe391672	-0.18074968
9	0xbd855b4c	-0.06511554
10	0xbd88eedf	-0.06686186
11	0xbdf92620	-0.12165475
12	0xbdd4b441	-0.10385943
13	0xbe2ee429	-0.17079224
14	0xbe055b95	-0.13023217
15	0xbe0a77a5	-0.13522203
16	0xbe1d37bf	-0.15353297
17	0xbe00370c	-0.12520999
18	0xbe5ffcdd	-0.21873803
19	0xbd8d6164	-0.069033414
20	0xbe646a26	-0.22306117
21	0xbdd43bd0	-0.10362971
22	0xbcef1f1e	-0.029189643
23	0xbdbe510d	-0.09292803
24	0xbdf82005	-0.12115482
25	0xbdeb5af8	-0.1149196
26	0xbe33d225	-0.17560633
27	0xbd59101d	-0.052993882
28	0xbe1ce069	-0.1531998
29	0xbe548805	-0.20755012
30	0xbe4bdaab	-0.19907634
31	0xbd636a3a	-0.055521227
32	0xbe21296c	-0.15738457
33	0xbdfb3080	-0.1226511
34	0xbe850e03	-0.25987253
35	0xbe29bff6	-0.16577134
36	0xbe057f23	-0.1303678
37	0xbded59c4	-0.11589387
38	0xbe1d9115	-0.15387376
39	0xbdfd8365	-0.12378577
40	0xbe1c8518	-0.15285146
41	0xbe69403b	-0.22778408
42	0xbdee6335	-0.11640016
43	0xbd9ba0c8	-0.07599026
44	0xbe32ac3d	-0.17448516
45	0xbdff8f39	-0.124784894
46	0xbe0ff6a2	-0.14058927
47	0xbe69c604	-0.22829443
48	0xbe52a173	-0.205694
49	0xbe79b9cd	-0.24387284
50	0xbde52b94	-0.111899525
51	0xbe540ece	-0.20708773
52	0xbd90f9d0	-0.07078898
53	0xbddad819	-0.106857486
54	0xbe29abe5	-0.16569479
55	0xbe333639	-0.17501153
56	0xbdb5094a	-0.088396624
57	0xbe0ed641	-0.13948919
58	0xbe410e85	-0.18853195
59	0xbded4316	-0.11585061
60	0xbe10470c	-0.14089602
61	0xbe12f225	-0.14350183
62	0xbe68b9e1	-0.22727157
63	0xbdd4c3e4	-0.10388926
64	0xbe4067ad	-0.18789549
65	0xbe11fb4e	-0.14256021
66	0xbe1423d2	-0.1446679
67	0x39cc5440	0.00038972683
68	0xbe458486	-0.19288835
69	0xbd984be1	-0.07436348
70	0xbe24e26c	-0.16101998
71	0xbdd5c098	-0.10437125
72	0xbdd308e7	-0.10304432
73	0xbe3f34a6	-0.18672428
74	0xbddbf41f	-0.10739922
75	0xbdb7e9a8	-0.08980113
76	0xbe102340	-0.14075947
77	0xbe437dec	-0.19091004
78	0xbdf30e4b	-0.118679605
79	0xbe577891	-0.21042086
80	0xbe13dd32	-0.14439848
81	0xbe478fdf	-0.19488476
82	0xbe2b8d13	-0.16753034
83	0xbd93407c	-0.07190034
84	0xbe0a570f	-0.13509773
85	0xbe11d0c6	-0.14239797
86	0xbe2d001f	-0.16894577
87	0xbdda4128	-0.10656959
88	0xbe14e927	-0.14542066
89	0xbe51a167	-0.20471726
90	0xbda1c7da	-0.07899447
91	0xbda8fefd	-0.0825176
92	0xbdde6a53	-0.108601235
93	0xbe08f69e	-0.13375327
94	0xbe546a70	-0.20743728
95	0xbe8507fb	-0.2598265
96	0xbe0ed412	-0.13948086
97	0xbd3e6e18	-0.046491712
98	0xbde66536	-0.11249773
99	0xbdcbdb96	-0.09953992
100	0xbe01ae8e	-0.12664244
101	0xbe1ed827	-0.15512143
102	0xbe4bb1eb	-0.19892089
103	0xbddb1b86	-0.10698609
104	0xbe3724b8	-0.17885101
105	0xbd84a578	-0.06476873
106	0xbe27ff34	-0.16405946
107	0xbe54c6aa	-0.2077891
108	0xbe00fc6a	-0.12596288
109	0xbe1f6090	-0.1556418
110	0xbe2c9d42	-0.16856864
111	0xbe07996e	-0.13242123
112	0xbd998555	-0.07496134
113	0xbe356f89	-0.17718329
114	0xbdddf929	-0.10838539
115	0xbdf01fb6	-0.117247984
116	0xbde61cc9	-0.11235959
117	0xbe230137	-0.15918432
118	0xbe67e539	-0.22646035
119	0xbdabfb4e	-0.08397542
120	0xbdf7fcd1	-0.12108768
121	0xbdaa2035	-0.08306924
122	0xbe298e8b	-0.16558282
123	0xbe40e78b	-0.18838327
124	0xbe57f430	-0.21089244
125	0xbe1366f3	-0.14394741
126	0xbda54cbf	-0.08071279
127	0xbe101ec3	-0.14074235

arith.constant13 f4 [64]
0	0xbc853022	-0.016258303
1	0x3ddc9b5d	0.10771821
2	0x3daf9d8d	0.08574972
3	0xbb7bb121	-0.0038405138
4	0x3d96b8c7	0.07359462
5	0x3c8155f7	0.015788062
6	0x3dc7445d	0.09729836
7	0xbde6ebff	-0.112754814
8	0xbd13f127	-0.036118653
9	0xbd90fb39	-0.07079167
10	0x3e25e717	0.16201435
11	0xbdb66765	-0.0890644
12	0xbcaa4307	-0.020783914
13	0x3c82061f	0.01587206
14	0x3e717c55	0.23582585
15	0xbd72b92f	-0.059258636
16	0x3d464cd9	0.04841313
17	0xbd19bb5e	-0.037532203
18	0x3c02db04	0.007986788
19	0xbbbd4bcc	-0.005776858
20	0x3c81eb4d	0.01585927
21	0x3e4539f9	0.19260396
22	0xbe1ef295	-0.15522225
23	0x3dfd8308	0.12378508
24	0xbd50c65e	-0.050970428
25	0xbd7d092a	-0.061776318
26	0x3d5d17c9	0.05397776
27	0xbd444550	-0.047917664
28	0xbd3578ce	-0.04430466
29	0xbdb7d57f	-0.08976268
30	0xbdf64f91	-0.12026895
31	0x3e22573e	0.15853593
32	0xbccd3474	-0.025049426
33	0xbdbc6bf9	-0.09200282
34	0xbdb4a413	-0.08820357
35	0x3de12237	0.10992854
36	0x3e41f74c	0.18941993
37	0x3da11a09	0.07866294
38	0x3e0b0431	0.13575818
39	0x3c91f3a8	0.01781638
40	0x3e7e3dd8	0.24828279
41	0x3c286bab	0.010279576
42	0xbc72639c	-0.014794257
43	0x3d9f2a7e	0.077717766
44	0x3e2e1784	0.17001158
45	0x3bf888bd	0.00758466
46	0x3dc029ce	0.093829736
47	0x3dc0f3bb	0.09421488
48	0xbe0ba4a8	-0.1363703
49	0x3d39e034	0.045379832
50	0x3da1f38d	0.07907782
51	0xbb20ad8e	-0.002451751
52	0x3df626f3	0.12019148
53	0xbd43d1ec	-0.04780762
54	0x3db0554c	0.08610019
55	0x3df8016e	0.12109648
56	0x3e595b7c	0.21226305
57	0x3e4d8a13	0.20072202
58	0xbd6279f8	-0.0552921
59	0xbd128e3d	-0.03578018
60	0x3e53cd7c	0.20683855
61	0xbbf143b7	-0.0073628086
62	0x3b258d8f	0.0025261377
63	0xbe0139f7	-0.12619768

arith.constant14 f4 [32]
0	0xbdcb803e	-0.0993657
1	0x3d733077	0.05937239
2	0xbe0b6855	-0.13614018
3	0xbdb70e5a	-0.08938284
4	0xbe3b626b	-0.18299262
5	0xbd29c473	-0.041447114
6	0xbdc7d045	-0.09756521
7	0xbe2f8f32	-0.17144468
8	0xbdbc96ec	-0.092084736
9	0xbd3ecc05	-0.046581287
10	0xbe4183c9	-0.18897928
11	0xbe6d62aa	-0.23182169
12	0xbd5fbc1a	-0.054622747
13	0xbe5b15ab	-0.21394984
14	0xbd840032	-0.0644535
15	0xbdd106ce	-0.10206376
16	0xbdbbd93b	-0.09172293
17	0xbdd58b64	-0.10426977
18	0xbdaedd96	-0.08538358
19	0x3ca63f87	0.020293964
20	0xbd842411	-0.064521916
21	0xbe03cf14	-0.12871963
22	0xbdbb6867	-0.091507725
23	0xbdccf6a1	-0.10007978
24	0xbe114796	-0.14187464
25	0xbe108275	-0.14112265
26	0xbe29e4a5	-0.16591127
27	0xbc3a1843	-0.0113583235
28	0xbcd87632	-0.026423547
29	0xbdb672c1	-0.08908606
30	0xbb065b0f	-0.0020501052
31	0x3d48b259	0.04899821

arith.constant15 f4 [7, 32]
0	0x3ee6f50b	0.45108828
1	0xbe5d4ad5	-0.21610577
2	0xbe1b0c1c	-0.15141338
3	0x3e80f3d4	0.25186026
4	0xbe14835c	-0.14503235
5	0xbe4b91fc	-0.19879907
6	0xbee5252c	-0.44754922
7	0x3ec2037d	0.37893286
8	0x3ea6da91	0.32588628
9	0x3d171b84	0.036891475
10	0x3e70f382	0.23530391
11	0x3e4582c4	0.19288164
12	0xbce74b57	-0.028234167
13	0xbda4c5b9	-0.08045525
14	0x3efcc408	0.4936831
15	0xbe2834a6	-0.16426334
16	0x3e5eeca1	0.21769954
17	0x3cfbfd8e	0.030760553
18	0x3dfe3b8a	0.124137
19	0xbd7941fe	-0.06085395
20	0xbe913dbe	-0.28367418
21	0xbd94fb9f	-0.072745554
22	0xbbb90198	-0.005645942
23	0x3e820bba	0.25399572
24	0xbea1b010	-0.31579638
25	0xbecffd61	-0.40623
26	0x3e8c1fbb	0.27367958
27	0xbedc6c82	-0.43051535
28	0xbdaba928	-0.08381873
29	0x3db1efe5	0.086883344
30	0xbeb9cd50	-0.36289454
31	0xbe8a98e9	-0.27069786
32	0x3ead07c1	0.33794978
33	0x3e8fb05c	0.2806424
34	0x3ec722b9	0.3889368
35	0xbd6c6060	-0.057709098
36	0xbe853028	-0.26013303
37	0xbe420996	-0.18948969
38	0xbd785227	-0.06062522
39	0x3d22ceaa	0.03974787
40	0xbd09388d	-0.033501197
41	0xbda40b43	-0.080099605
42	0x3ddeb925	0.10875157
43	0x3ed7327e	0.4203071
44	0xbbb6cd2c	-0.0055786576
45	0xbdc6abfd	-0.09700773
46	0xbe407a50	-0.18796659
47	0x3ecfdd02	0.40598303
48	0xbe83445e	-0.25638098
49	0x3ebc92f9	0.3683088
50	0xbec5edc5	-0.38657966
51	0x3e2096b4	0.15682489
52	0xbe6f21b4	-0.233527
53	0xbdb84f1c	-0.08999464
54	0xbe8805d8	-0.26566958
55	0xbeb25fa4	-0.34838593
56	0xbdddc3cd	-0.10828362
57	0x3e6abfba	0.229247
58	0x3ec05726	0.3756649
59	0x3ea9a4a2	0.33133417
60	0xbeb5d42d	-0.3551344
61	0xbba5355d	-0.005041762
62	0x3d4348b2	0.04767675
63	0xbd91deba	-0.0712256
64	0x3e5291a2	0.20563367
65	0xbe4ce485	-0.20009048
66	0x3dc0d24e	0.094151124
67	0xbe6c7457	-0.23091255
68	0xbde094b6	-0.10965864
69	0xbea2f9a2	-0.3183108
70	0xbd1c0224	-0.03808798
71	0xbe995d35	-0.29953924
72	0xbd38ea58	-0.045145363
73	0x3de86651	0.1134764
74	0x3e7e8b8f	0.24857925
75	0xbe2f7de6	-0.1713787
76	0xbed29180	-0.41126633
77	0x3e3e2401	0.18568422
78	0xbeddd3d0	-0.43325663
79	0x3dca55bf	0.09879636
80	0x3d8eb346	0.069677874
81	0xbdfcd4fa	-0.123453096
82	0x3e973cf9	0.29538706
83	0x3e339398	0.17536771
84	0x3e0aa958	0.13541162
85	0x3e58be29	0.2116629
86	0x3e23c593	0.15993337
87	0x3e2db7ce	0.16964647
88	0x3c222d49	0.009898492
89	0x3e0772c4	0.13227373
90	0x3d6f4a67	0.058420565
91	0x3e07edbb	0.1327428
92	0x3eb27f7c	0.34862888
93	0xbe0bb29c	-0.13642353
94	0x3e05a790	0.13052201
95	0xbe0fa480	-0.14027596
96	0xbf057d43	-0.5214426
97	0xbe88c272	-0.2671085
98	0xbeb4fdc5	-0.3534986
99	0x3ef89a17	0.4855506
100	0x3e2eadc0	0.17058468
101	0xbe4b9c7b	-0.19883911
102	0x3f11251e	0.5669726
103	0xbe39a6c4	-0.18130022
104	0x3e1fd4c2	0.15608504
105	0x3b6b9cef	0.0035951694
106	0xbea9747c	-0.33096683
107	0xbc77a1dd	-0.015114275
108	0x3e9d9d2a	0.3078397
109	0xbd816090	-0.06317246
110	0xbea0dea1	-0.31419852
111	0x3ea83fce	0.3286118
112	0xbec446b8	-0.38335204
113	0x3ea294c5	0.31754127
114	0xbd9f071e	-0.07765029
115	0x3ecf72c8	0.4051726
116	0xbe9ccc0a	-0.3062442
117	0xbe362628	-0.17787993
118	0x3e7e3539	0.2482499
119	0xbeb2ace0	-0.34897518
120	0x3e9dfc01	0.30856326
121	0xbe85d79e	-0.26141065
122	0x3ec8a5fa	0.3918913
123	0xbecacbb5	-0.3960854
124	0x3e745774	0.23861486
125	0x3ee27da6	0.44236487
126	0xbe632b13	-0.221844
127	0x3eac5c59	0.33664206
128	0x3e5429e5	0.20719106
129	0xbcddcf4d	-0.027076388
130	0x3da0c53e	0.07850121
131	0xbd233583	-0.039845955
132	0x3e76219d	0.2403626
133	0x3d87057f	0.06592845
134	0x3dd62f32	0.104582205
135	0xbe991f93	-0.29906902
136	0x3d9566fb	0.072950326
137	0xbd362c53	-0.044475865
138	0xbe84270a	-0.25811034
139	0x3e17d7d5	0.14828427
140	0x3e976a91	0.2957349
141	0x3d40a5be	0.047033064
142	0xbd21a594	-0.03946455
143	0xbdb20fb6	-0.08694403
144	0x3e864352	0.26223236
145	0xbaa31150	-0.0012441073
146	0x3eba3a91	0.36372808
147	0xbe8b28f8	-0.27179694
148	0x3dc75b35	0.09734193
149	0xbc88c783	-0.016696697
150	0xbe1d922d	-0.15387793
151	0xbd060284	-0.032717243
152	0xbdfc4449	-0.12317712
153	0x3e06f09d	0.13177724
154	0x3d7d8aef	0.061900076
155	0xbc991c28	-0.018690184
156	0xbc222cc8	-0.009898372
157	0xbf209fcc	-0.6274383
158	0x3e79e332	0.24403074
159	0x3e199a4c	0.15000266
160	0xbe0c8872	-0.13723925
161	0x3dafe125	0.08587865
162	0xbe903e4c	-0.2817253
163	0xbd22df64	-0.039763823
164	0xbe23c376	-0.15992531
165	0x3dfb9ebe	0.12286137
166	0xbcc277fb	-0.023738852
167	0xbd86a79e	-0.06574939
168	0x3e18f89a	0.14938584
169	0x3ed714a7	0.42007944
170	0xbe1f9a6d	-0.15586253
171	0x3e973578	0.2953298
172	0x3f0f7ae5	0.560469
173	0x3e55dae1	0.20884277
174	0xbe9f2a6c	-0.31087053
175	0x3e91560f	0.2838597
176	0xbe4840df	-0.19555996
177	0x3e218c59	0.15776195
178	0xbf1ce095	-0.61280185
179	0xbe821752	-0.25408417
180	0x3e59f4e4	0.21284825
181	0x3e9b6de4	0.30357277
182	0xbdba9248	-0.09109932
183	0x3d49ed3a	0.049298503
184	0xbe8b1e23	-0.2717143
185	0xbe92a9af	-0.28645083
186	0xbf07bf32	-0.53026116
187	0xbeb6a473	-0.3567234
188	0xbd86b5f5	-0.06577674
189	0x3e38a0c5	0.18030079
190	0xbe72b810	-0.23703027
191	0xbe908b8f	-0.28231475
192	0xbeb955d8	-0.36198306
193	0x3d2f74ee	0.042836122
194	0x3e08a11b	0.13342707
195	0x3e16bb53	0.14719896
196	0x3ea10a0f	0.31452987
197	0xbdf3646b	-0.118843876
198	0xbe4df40d	-0.20112629
199	0xbe331b51	-0.17490889
200	0xbe1cf322	-0.15327123
201	0x3e246a18	0.16056097
202	0x3e824460	0.2544279
203	0xbce04f7a	-0.027381647
204	0x3ec02c35	0.37533727
205	0xbdcf277e	-0.101149544
206	0xbe0f702d	-0.14007635
207	0xbe810029	-0.25195435
208	0x3d7edc69	0.06222192
209	0x3e0542cd	0.13013764
210	0x3ed449b4	0.4146248
211	0xbe6bb958	-0.23019922
212	0xbdf4183e	-0.11918686
213	0xbe020be0	-0.12699842
214	0xbdce4545	-0.10071806
215	0x3e5865c9	0.21132578
216	0xbe032adc	-0.12809318
217	0x3e4ebf00	0.20190048
218	0xbe198087	-0.14990436
219	0x3d42f82d	0.04759996
220	0xbe68a0d3	-0.227176
221	0xbc14374e	-0.009046389
222	0xbe1997f9	-0.14999379
223	0x3d79802c	0.06091325

arith.constant16 f4 [7]
0	0x3f1e8cca	0.6193358
1	0xbd5460bc	-0.051850066
2	0x3d8477bc	0.0646815
3	0xbf155e53	-0.5834705
4	0x3ed07c0d	0.40719643
5	0x3f761bb9	0.9613605
6	0x3e61f8fe	0.22067639

tfl.pseudo_qconst i1 [32, 64]
0	0x34	52
1	0xef	-17
2	0x05	5
3	0x39	57
4	0xb3	-77
5	0xf5	-11
6	0xcd	-51
7	0xf8	-8
8	0xe3	-29
9	0x1e	30
10	0xc9	-55
11	0xfc	-4
12	0xf1	-15
13	0x95	-107
14	0x50	80
15	0xf5	-11
16	0xeb	-21
17	0xcc	-52
18	0x10	16
19	0xea	-22
20	0x84	-124
21	0x81	-127
22	0xa7	-89
23	0x59	89
24	0xca	-54
25	0x3d	61
26	0xb1	-79
27	0xc9	-55
28	0x1d	29
29	0x45	69
30	0x14	20
31	0x0a	10
32	0xd1	-47
33	0xa6	-90
34	0x5b	91
35	0x39	57
36	0xd1	-47
37	0xdc	-36
38	0xe0	-32
39	0x27	39
40	0xb8	-72
41	0xbb	-69
42	0x36	54
43	0xe1	-31
44	0xf0	-16
45	0x10	16
46	0xc4	-60
47	0x1a	26
48	0x21	33
49	0xcc	-52
50	0xc1	-63
51	0xbb	-69
52	0xd8	-40
53	0xe7	-25
54	0xd3	-45
55	0x0b	11
56	0x1b	27
57	0xd5	-43
58	0x04	4
59	0x09	9
60	0xa7	-89
61	0xef	-17
62	0xbd	-67
63	0x07	7
64	0xf1	-15
65	0xe2	-30
66	0xd5	-43
67	0xd6	-42
68	0x09	9
69	0xf0	-16
70	0xd5	-43
71	0x1e	30
72	0xda	-38
73	0xdc	-36
74	0xec	-20
75	0x75	117
76	0xea	-22
77	0x0a	10
78	0x1d	29
79	0x40	64
80	0x0a	10
81	0x4d	77
82	0xdc	-36
83	0x32	50
84	0xc3	-61
85	0xfb	-5
86	0x32	50
87	0x44	68
88	0x18	24
89	0x18	24
90	0x43	67
91	0xbf	-65
92	0x1b	27
93	0xe1	-31
94	0x0f	15
95	0x25	37
96	0x0c	12
97	0x8d	-115
98	0x2d	45
99	0x20	32
100	0xef	-17
101	0xbb	-69
102	0x04	4
103	0x45	69
104	0x57	87
105	0xf0	-16
106	0x1d	29
107	0xc2	-62
108	0x22	34
109	0x15	21
110	0x2d	45
111	0xc9	-55
112	0x07	7
113	0xa1	-95
114	0xb3	-77
115	0x7f	127
116	0x5f	95
117	0x30	48
118	0x48	72
119	0xdc	-36
120	0xf6	-10
121	0xd8	-40
122	0x35	53
123	0x51	81
124	0xfc	-4
125	0xf0	-16
126	0xc5	-59
127	0xfe	-2
128	0xd4	-44
129	0xd9	-39
130	0xde	-34
131	0x16	22
132	0xe6	-26
133	0x18	24
134	0xf5	-11
135	0xc8	-56
136	0x35	53
137	0x5a	90
138	0x37	55
139	0x33	51
140	0xdc	-36
141	0xc9	-55
142	0x12	18
143	0x26	38
144	0x03	3
145	0x3b	59
146	0x2b	43
147	0xdb	-37
148	0xf8	-8
149	0xf9	-7
150	0xff	-1
151	0x2d	45
152	0x0b	11
153	0xf3	-13
154	0xe9	-23
155	0x64	100
156	0x59	89
157	0xf4	-12
158	0x09	9
159	0x1c	28
160	0xc8	-56
161	0x19	25
162	0x4a	74
163	0xf7	-9
164	0xe6	-26
165	0xe0	-32
166	0xca	-54
167	0x33	51
168	0xf0	-16
169	0x0c	12
170	0x4a	74
171	0x99	-103
172	0xf5	-11
173	0x2a	42
174	0xda	-38
175	0xf1	-15
176	0xf2	-14
177	0x50	80
178	0xb8	-72
179	0x12	18
180	0x41	65
181	0xd1	-47
182	0x44	68
183	0x0d	13
184	0xea	-22
185	0xdb	-37
186	0x94	-108
187	0x27	39
188	0x81	-127
189	0xed	-19
190	0x07	7
191	0xd9	-39
192	0x26	38
193	0xb3	-77
194	0xd1	-47
195	0xe1	-31
196	0x16	22
197	0x40	64
198	0xb0	-80
199	0x01	1
200	0x03	3
201	0xcf	-49
202	0x0c	12
203	0x01	1
204	0xfc	-4
205	0x0b	11
206	0x45	69
207	0x3e	62
208	0xf1	-15
209	0xc7	-57
210	0xfa	-6
211	0x93	-109
212	0x4e	78
213	0x04	4
214	0x23	35
215	0x46	70
216	0xbb	-69
217	0x8d	-115
218	0x43	67
219	0xc3	-61
220	0xa3	-93
221	0xf9	-7
222	0xf2	-14
223	0xd7	-41
224	0xf9	-7
225	0x14	20
226	0x87	-121
227	0xb5	-75
228	0xd2	-46
229	0x21	33
230	0x6a	106
231	0x41	65
232	0x54	84
233	0x2c	44
234	0xff	-1
235	0xe2	-30
236	0xed	-19
237	0x3f	63
238	0xea	-22
239	0x12	18
240	0xa6	-90
241	0x0d	13
242	0x7f	127
243	0xe2	-30
244	0xd7	-41
245	0x1c	28
246	0x98	-104
247	0xf7	-9
248	0x38	56
249	0xb9	-71
250	0xdf	-33
251	0x35	53
252	0x29	41
253	0x6f	111
254	0x0b	11
255	0x18	24

tfl.pseudo_qconst1 i1 [64, 128]
0	0xe4	-28
1	0x7f	127
2	0x20	32
3	0x1a	26
4	0xf3	-13
5	0x21	33
6	0x21	33
7	0xeb	-21
8	0x03	3
9	0xc6	-58
10	0x57	87
11	0x0b	11
12	0x15	21
13	0x3a	58
14	0xe2	-30
15	0xd7	-41
16	0xe6	-26
17	0xe7	-25
18	0x24	36
19	0xe0	-32
20	0xe0	-32
21	0x31	49
22	0xcb	-53
23	0xe9	-23
24	0xe2	-30
25	0xfb	-5
26	0x27	39
27	0xb3	-77
28	0x13	19
29	0x17	23
30	0xe8	-24
31	0xea	-22
32	0x20	32
33	0x34	52
34	0x6a	106
35	0x2c	44
36	0x45	69
37	0xc5	-59
38	0xe0	-32
39	0x02	2
40	0xc3	-61
41	0x0b	11
42	0x15	21
43	0x43	67
44	0x06	6
45	0xf0	-16
46	0x3f	63
47	0x05	5
48	0xcb	-53
49	0x15	21
50	0xcd	-51
51	0xc0	-64
52	0x56	86
53	0x11	17
54	0x23	35
55	0xff	-1
56	0x2f	47
57	0x2c	44
58	0x1f	31
59	0xdd	-35
60	0xbc	-68
61	0x28	40
62	0xa6	-90
63	0xba	-70
64	0x16	22
65	0xee	-18
66	0xf8	-8
67	0xe9	-23
68	0xd3	-45
69	0xf8	-8
70	0xc3	-61
71	0x15	21
72	0x31	49
73	0xf8	-8
74	0x1d	29
75	0x1e	30
76	0xc7	-57
77	0x20	32
78	0xe5	-27
79	0xda	-38
80	0x29	41
81	0x27	39
82	0xd6	-42
83	0x2e	46
84	0x02	2
85	0xe2	-30
86	0x55	85
87	0x68	104
88	0x26	38
89	0xbf	-65
90	0xe3	-29
91	0x0e	14
92	0x07	7
93	0x10	16
94	0xac	-84
95	0xd8	-40
96	0x20	32
97	0xc5	-59
98	0xe8	-24
99	0x02	2
100	0xe3	-29
101	0x0d	13
102	0x2c	44
103	0xf4	-12
104	0xc5	-59
105	0x2f	47
106	0x1e	30
107	0xe7	-25
108	0xfe	-2
109	0xf6	-10
110	0x01	1
111	0xcf	-49
112	0xfe	-2
113	0x15	21
114	0xe9	-23
115	0xc8	-56
116	0xe9	-23
117	0xe9	-23
118	0x05	5
119	0x3f	63
120	0x0f	15
121	0x3c	60
122	0x20	32
123	0x60	96
124	0xe4	-28
125	0xde	-34
126	0xf2	-14
127	0xda	-38
128	0xfb	-5
129	0xc0	-64
130	0xc7	-57
131	0x22	34
132	0x1c	28
133	0x2c	44
134	0xf4	-12
135	0xbd	-67
136	0x3c	60
137	0xb0	-80
138	0xbc	-68
139	0x39	57
140	0x04	4
141	0xaa	-86
142	0xf6	-10
143	0x1b	27
144	0x32	50
145	0x16	22
146	0xde	-34
147	0x31	49
148	0xf4	-12
149	0xdb	-37
150	0x0a	10
151	0x16	22
152	0x3f	63
153	0x2e	46
154	0xaf	-81
155	0x08	8
156	0xd4	-44
157	0xf0	-16
158	0x98	-104
159	0xc7	-57
160	0x32	50
161	0x2a	42
162	0xd1	-47
163	0xf1	-15
164	0x18	24
165	0xde	-34
166	0x0f	15
167	0xf9	-7
168	0x4c	76
169	0x26	38
170	0x17	23
171	0xed	-19
172	0x01	1
173	0x05	5
174	0x9c	-100
175	0x03	3
176	0xea	-22
177	0xf9	-7
178	0x17	23
179	0x17	23
180	0x2e	46
181	0x1f	31
182	0x8e	-114
183	0x04	4
184	0xe1	-31
185	0xe7	-25
186	0x9c	-100
187	0xca	-54
188	0xb8	-72
189	0x07	7
190	0x0a	10
191	0x4d	77
192	0xf2	-14
193	0x17	23
194	0xee	-18
195	0xe8	-24
196	0x28	40
197	0xdd	-35
198	0x3a	58
199	0x25	37
200	0xa0	-96
201	0x10	16
202	0x21	33
203	0xa3	-93
204	0x11	17
205	0x03	3
206	0x3e	62
207	0x34	52
208	0xee	-18
209	0x91	-111
210	0xf0	-16
211	0xb1	-79
212	0xc6	-58
213	0x26	38
214	0x22	34
215	0xc3	-61
216	0xff	-1
217	0x38	56
218	0x1d	29
219	0x37	55
220	0xdb	-37
221	0x7f	127
222	0x0c	12
223	0x28	40
224	0xbd	-67
225	0x2f	47
226	0x22	34
227	0x2b	43
228	0xe0	-32
229	0xc8	-56
230	0xa2	-94
231	0xa7	-89
232	0x09	9
233	0xe0	-32
234	0x23	35
235	0x7a	122
236	0x94	-108
237	0xc7	-57
238	0xd6	-42
239	0x15	21
240	0xdb	-37
241	0xfc	-4
242	0x2c	44
243	0xdf	-33
244	0xcf	-49
245	0x1f	31
246	0x53	83
247	0x14	20
248	0xd7	-41
249	0xb0	-80
250	0x2d	45
251	0x22	34
252	0x39	57
253	0xa1	-95
254	0x04	4
255	0xb9	-71
